…
Extracted features audio track 22 of 25.
Extracted features audio track 23 of 25.
Extracted features audio track 24 of 25.
Extracted features audio track 25 of 25.
Training X shape: (50, 128, 32)
Training Y shape: (50, 5)
Dev X shape: (25, 128, 32)
Dev Y shape: (25, 5)
Test X shape: (25, 128, 32)
Test Y shape: (25, 5)
Build LSTM RNN model ...
Compiling ...
Model: "sequential"
_________________________________________________________________
 Layer (type)                Output Shape              Param #   
=================================================================
 lstm (LSTM)                 (None, 128, 128)          82432     
                                                                 
 lstm_1 (LSTM)               (None, 128, 64)           49408     
                                                                 
 lstm_2 (LSTM)               (None, 128, 64)           33024     
                                                                 
 lstm_3 (LSTM)               (None, 128, 32)           12416     
                                                                 
 lstm_4 (LSTM)               (None, 128, 32)           8320      
                                                                 
 lstm_5 (LSTM)               (None, 32)                8320      
                                                                 
 dense (Dense)               (None, 5)                 165       
                                                                 
=================================================================
Total params: 194,085
Trainable params: 194,085
Non-trainable params: 0
_________________________________________________________________
2022-11-24 21:55:40.909280: W tensorflow/core/platform/profile_utils/cpu_utils.cc:128] Failed to get CPU frequency: 0 Hz
Training ...
…
